…
          "base_uri": "https://localhost:8080/",
          "height": 1000
        },
        "id": "-dTx2R49Tg28",
        "outputId": "a7d16d74-4608-40e9-846e-62511bf08cce"
      },
      "outputs": [
        {
          "output_type": "stream",
          "name": "stdout",
          "text": [
            "Model: \"sequential_17\"\n",
            "_________________________________________________________________\n",
            " Layer (type)                Output Shape              Param #   \n",
            "=================================================================\n",
            " conv2d_68 (Conv2D)          (None, 64, 64, 32)        896       \n",
            "                                                                 \n",
            " max_pooling2d_68 (MaxPoolin  (None, 32, 32, 32)       0         \n",
            " g2D)                                                            \n",
            "                                                                 \n",
            " conv2d_69 (Conv2D)          (None, 30, 30, 64)        18496     \n",
            "                                                                 \n",
            " max_pooling2d_69 (MaxPoolin  (None, 15, 15, 64)       0         \n",
            " g2D)                                                            \n",
            "                                                                 \n",
            " conv2d_70 (Conv2D)          (None, 13, 13, 96)        55392     \n",
            "                                                                 \n",
            " max_pooling2d_70 (MaxPoolin  (None, 6, 6, 96)         0         \n",
            " g2D)                                                            \n",
            "                                                                 \n",
            " conv2d_71 (Conv2D)          (None, 4, 4, 128)         110720    \n",
            "                                                                 \n",
            " max_pooling2d_71 (MaxPoolin  (None, 2, 2, 128)        0         \n",
            " g2D)                                                            \n",
            "                                                                 \n",
            " flatten_17 (Flatten)        (None, 512)               0         \n",
            "                                                                 \n",
            " dense_34 (Dense)            (None, 512)               262656    \n",
            "                                                                 \n",
            " dense_35 (Dense)            (None, 4)                 2052      \n",
            "                                                                 \n",
            "=================================================================\n",
            "Total params: 450,212\n",
            "Trainable params: 450,212\n",
            "Non-trainable params: 0\n",
            "_________________________________________________________________\n",
            "Epoch 1/10\n"
…
